{
    "format":"layers-model",
    "generatedBy":"keras v2.3.0-tf",
    "convertedBy":"TensorFlow.js Converter v2.0.1.post1",
    "modelTopology":{
        "keras_version":"2.3.0-tf",
        "backend":"tensorflow",
        "model_config":{
            "class_name":"Model",
            "config":{
                "name":"model",
                "layers":[
                    {
                        "class_name":"InputLayer",
                        "config":{
                            "batch_input_shape":[
                                null,
                                6,
                                7,
                                3
                            ],
                            "dtype":"float32",
                            "sparse":false,
                            "ragged":false,
                            "name":"input_1"
                        },
                        "name":"input_1",
                        "inbound_nodes":[

                        ]
                    },
                    {
                        "class_name":"Conv2D",
                        "config":{
                            "name":"conv2d",
                            "trainable":true,
                            "dtype":"float32",
                            "filters":16,
                            "kernel_size":[
                                3,
                                3
                            ],
                            "strides":[
                                1,
                                1
                            ],
                            "padding":"same",
                            "data_format":"channels_last",
                            "dilation_rate":[
                                1,
                                1
                            ],
                            "activation":"linear",
                            "use_bias":true,
                            "kernel_initializer":{
                                "class_name":"GlorotUniform",
                                "config":{
                                    "seed":null
                                }
                            },
                            "bias_initializer":{
                                "class_name":"Zeros",
                                "config":{

                                }
                            },
                            "kernel_regularizer":null,
                            "bias_regularizer":null,
                            "activity_regularizer":null,
                            "kernel_constraint":null,
                            "bias_constraint":null
                        },
                        "name":"conv2d",
                        "inbound_nodes":[
                            [
                                [
                                    "input_1",
                                    0,
                                    0,
                                    {

                                    }
                                ]
                            ]
                        ]
                    },
                    {
                        "class_name":"BatchNormalization",
                        "config":{
                            "name":"batch_normalization",
                            "trainable":true,
                            "dtype":"float32",
                            "axis":[
                                3
                            ],
                            "momentum":0.99,
                            "epsilon":0.001,
                            "center":true,
                            "scale":true,
                            "beta_initializer":{
                                "class_name":"Zeros",
                                "config":{

                                }
                            },
                            "gamma_initializer":{
                                "class_name":"Ones",
                                "config":{

                                }
                            },
                            "moving_mean_initializer":{
                                "class_name":"Zeros",
                                "config":{

                                }
                            },
                            "moving_variance_initializer":{
                                "class_name":"Ones",
                                "config":{

                                }
                            },
                            "beta_regularizer":null,
                            "gamma_regularizer":null,
                            "beta_constraint":null,
                            "gamma_constraint":null
                        },
                        "name":"batch_normalization",
                        "inbound_nodes":[
                            [
                                [
                                    "conv2d",
                                    0,
                                    0,
                                    {

                                    }
                                ]
                            ]
                        ]
                    },
                    {
                        "class_name":"Activation",
                        "config":{
                            "name":"activation",
                            "trainable":true,
                            "dtype":"float32",
                            "activation":"relu"
                        },
                        "name":"activation",
                        "inbound_nodes":[
                            [
                                [
                                    "batch_normalization",
                                    0,
                                    0,
                                    {

                                    }
                                ]
                            ]
                        ]
                    },
                    {
                        "class_name":"Conv2D",
                        "config":{
                            "name":"conv2d_1",
                            "trainable":true,
                            "dtype":"float32",
                            "filters":16,
                            "kernel_size":[
                                3,
                                3
                            ],
                            "strides":[
                                1,
                                1
                            ],
                            "padding":"same",
                            "data_format":"channels_last",
                            "dilation_rate":[
                                1,
                                1
                            ],
                            "activation":"linear",
                            "use_bias":true,
                            "kernel_initializer":{
                                "class_name":"GlorotUniform",
                                "config":{
                                    "seed":null
                                }
                            },
                            "bias_initializer":{
                                "class_name":"Zeros",
                                "config":{

                                }
                            },
                            "kernel_regularizer":null,
                            "bias_regularizer":null,
                            "activity_regularizer":null,
                            "kernel_constraint":null,
                            "bias_constraint":null
                        },
                        "name":"conv2d_1",
                        "inbound_nodes":[
                            [
                                [
                                    "activation",
                                    0,
                                    0,
                                    {

                                    }
                                ]
                            ]
                        ]
                    },
                    {
                        "class_name":"BatchNormalization",
                        "config":{
                            "name":"batch_normalization_1",
                            "trainable":true,
                            "dtype":"float32",
                            "axis":[
                                3
                            ],
                            "momentum":0.99,
                            "epsilon":0.001,
                            "center":true,
                            "scale":true,
                            "beta_initializer":{
                                "class_name":"Zeros",
                                "config":{

                                }
                            },
                            "gamma_initializer":{
                                "class_name":"Ones",
                                "config":{

                                }
                            },
                            "moving_mean_initializer":{
                                "class_name":"Zeros",
                                "config":{

                                }
                            },
                            "moving_variance_initializer":{
                                "class_name":"Ones",
                                "config":{

                                }
                            },
                            "beta_regularizer":null,
                            "gamma_regularizer":null,
                            "beta_constraint":null,
                            "gamma_constraint":null
                        },
                        "name":"batch_normalization_1",
                        "inbound_nodes":[
                            [
                                [
                                    "conv2d_1",
                                    0,
                                    0,
                                    {

                                    }
                                ]
                            ]
                        ]
                    },
                    {
                        "class_name":"Activation",
                        "config":{
                            "name":"activation_1",
                            "trainable":true,
                            "dtype":"float32",
                            "activation":"relu"
                        },
                        "name":"activation_1",
                        "inbound_nodes":[
                            [
                                [
                                    "batch_normalization_1",
                                    0,
                                    0,
                                    {

                                    }
                                ]
                            ]
                        ]
                    },
                    {
                        "class_name":"Conv2D",
                        "config":{
                            "name":"conv2d_2",
                            "trainable":true,
                            "dtype":"float32",
                            "filters":16,
                            "kernel_size":[
                                3,
                                3
                            ],
                            "strides":[
                                1,
                                1
                            ],
                            "padding":"same",
                            "data_format":"channels_last",
                            "dilation_rate":[
                                1,
                                1
                            ],
                            "activation":"linear",
                            "use_bias":true,
                            "kernel_initializer":{
                                "class_name":"GlorotUniform",
                                "config":{
                                    "seed":null
                                }
                            },
                            "bias_initializer":{
                                "class_name":"Zeros",
                                "config":{

                                }
                            },
                            "kernel_regularizer":null,
                            "bias_regularizer":null,
                            "activity_regularizer":null,
                            "kernel_constraint":null,
                            "bias_constraint":null
                        },
                        "name":"conv2d_2",
                        "inbound_nodes":[
                            [
                                [
                                    "activation_1",
                                    0,
                                    0,
                                    {

                                    }
                                ]
                            ]
                        ]
                    },
                    {
                        "class_name":"BatchNormalization",
                        "config":{
                            "name":"batch_normalization_2",
                            "trainable":true,
                            "dtype":"float32",
                            "axis":[
                                3
                            ],
                            "momentum":0.99,
                            "epsilon":0.001,
                            "center":true,
                            "scale":true,
                            "beta_initializer":{
                                "class_name":"Zeros",
                                "config":{

                                }
                            },
                            "gamma_initializer":{
                                "class_name":"Ones",
                                "config":{

                                }
                            },
                            "moving_mean_initializer":{
                                "class_name":"Zeros",
                                "config":{

                                }
                            },
                            "moving_variance_initializer":{
                                "class_name":"Ones",
                                "config":{

                                }
                            },
                            "beta_regularizer":null,
                            "gamma_regularizer":null,
                            "beta_constraint":null,
                            "gamma_constraint":null
                        },
                        "name":"batch_normalization_2",
                        "inbound_nodes":[
                            [
                                [
                                    "conv2d_2",
                                    0,
                                    0,
                                    {

                                    }
                                ]
                            ]
                        ]
                    },
                    {
                        "class_name":"Add",
                        "config":{
                            "name":"add",
                            "trainable":true,
                            "dtype":"float32"
                        },
                        "name":"add",
                        "inbound_nodes":[
                            [
                                [
                                    "activation",
                                    0,
                                    0,
                                    {

                                    }
                                ],
                                [
                                    "batch_normalization_2",
                                    0,
                                    0,
                                    {

                                    }
                                ]
                            ]
                        ]
                    },
                    {
                        "class_name":"Activation",
                        "config":{
                            "name":"activation_2",
                            "trainable":true,
                            "dtype":"float32",
                            "activation":"relu"
                        },
                        "name":"activation_2",
                        "inbound_nodes":[
                            [
                                [
                                    "add",
                                    0,
                                    0,
                                    {

                                    }
                                ]
                            ]
                        ]
                    },
                    {
                        "class_name":"Conv2D",
                        "config":{
                            "name":"conv2d_3",
                            "trainable":true,
                            "dtype":"float32",
                            "filters":16,
                            "kernel_size":[
                                3,
                                3
                            ],
                            "strides":[
                                1,
                                1
                            ],
                            "padding":"same",
                            "data_format":"channels_last",
                            "dilation_rate":[
                                1,
                                1
                            ],
                            "activation":"linear",
                            "use_bias":true,
                            "kernel_initializer":{
                                "class_name":"GlorotUniform",
                                "config":{
                                    "seed":null
                                }
                            },
                            "bias_initializer":{
                                "class_name":"Zeros",
                                "config":{

                                }
                            },
                            "kernel_regularizer":null,
                            "bias_regularizer":null,
                            "activity_regularizer":null,
                            "kernel_constraint":null,
                            "bias_constraint":null
                        },
                        "name":"conv2d_3",
                        "inbound_nodes":[
                            [
                                [
                                    "activation_2",
                                    0,
                                    0,
                                    {

                                    }
                                ]
                            ]
                        ]
                    },
                    {
                        "class_name":"BatchNormalization",
                        "config":{
                            "name":"batch_normalization_3",
                            "trainable":true,
                            "dtype":"float32",
                            "axis":[
                                3
                            ],
                            "momentum":0.99,
                            "epsilon":0.001,
                            "center":true,
                            "scale":true,
                            "beta_initializer":{
                                "class_name":"Zeros",
                                "config":{

                                }
                            },
                            "gamma_initializer":{
                                "class_name":"Ones",
                                "config":{

                                }
                            },
                            "moving_mean_initializer":{
                                "class_name":"Zeros",
                                "config":{

                                }
                            },
                            "moving_variance_initializer":{
                                "class_name":"Ones",
                                "config":{

                                }
                            },
                            "beta_regularizer":null,
                            "gamma_regularizer":null,
                            "beta_constraint":null,
                            "gamma_constraint":null
                        },
                        "name":"batch_normalization_3",
                        "inbound_nodes":[
                            [
                                [
                                    "conv2d_3",
                                    0,
                                    0,
                                    {

                                    }
                                ]
                            ]
                        ]
                    },
                    {
                        "class_name":"Activation",
                        "config":{
                            "name":"activation_3",
                            "trainable":true,
                            "dtype":"float32",
                            "activation":"relu"
                        },
                        "name":"activation_3",
                        "inbound_nodes":[
                            [
                                [
                                    "batch_normalization_3",
                                    0,
                                    0,
                                    {

                                    }
                                ]
                            ]
                        ]
                    },
                    {
                        "class_name":"Conv2D",
                        "config":{
                            "name":"conv2d_4",
                            "trainable":true,
                            "dtype":"float32",
                            "filters":16,
                            "kernel_size":[
                                3,
                                3
                            ],
                            "strides":[
                                1,
                                1
                            ],
                            "padding":"same",
                            "data_format":"channels_last",
                            "dilation_rate":[
                                1,
                                1
                            ],
                            "activation":"linear",
                            "use_bias":true,
                            "kernel_initializer":{
                                "class_name":"GlorotUniform",
                                "config":{
                                    "seed":null
                                }
                            },
                            "bias_initializer":{
                                "class_name":"Zeros",
                                "config":{

                                }
                            },
                            "kernel_regularizer":null,
                            "bias_regularizer":null,
                            "activity_regularizer":null,
                            "kernel_constraint":null,
                            "bias_constraint":null
                        },
                        "name":"conv2d_4",
                        "inbound_nodes":[
                            [
                                [
                                    "activation_3",
                                    0,
                                    0,
                                    {

                                    }
                                ]
                            ]
                        ]
                    },
                    {
                        "class_name":"BatchNormalization",
                        "config":{
                            "name":"batch_normalization_4",
                            "trainable":true,
                            "dtype":"float32",
                            "axis":[
                                3
                            ],
                            "momentum":0.99,
                            "epsilon":0.001,
                            "center":true,
                            "scale":true,
                            "beta_initializer":{
                                "class_name":"Zeros",
                                "config":{

                                }
                            },
                            "gamma_initializer":{
                                "class_name":"Ones",
                                "config":{

                                }
                            },
                            "moving_mean_initializer":{
                                "class_name":"Zeros",
                                "config":{

                                }
                            },
                            "moving_variance_initializer":{
                                "class_name":"Ones",
                                "config":{

                                }
                            },
                            "beta_regularizer":null,
                            "gamma_regularizer":null,
                            "beta_constraint":null,
                            "gamma_constraint":null
                        },
                        "name":"batch_normalization_4",
                        "inbound_nodes":[
                            [
                                [
                                    "conv2d_4",
                                    0,
                                    0,
                                    {

                                    }
                                ]
                            ]
                        ]
                    },
                    {
                        "class_name":"Add",
                        "config":{
                            "name":"add_1",
                            "trainable":true,
                            "dtype":"float32"
                        },
                        "name":"add_1",
                        "inbound_nodes":[
                            [
                                [
                                    "activation_2",
                                    0,
                                    0,
                                    {

                                    }
                                ],
                                [
                                    "batch_normalization_4",
                                    0,
                                    0,
                                    {

                                    }
                                ]
                            ]
                        ]
                    },
                    {
                        "class_name":"Activation",
                        "config":{
                            "name":"activation_4",
                            "trainable":true,
                            "dtype":"float32",
                            "activation":"relu"
                        },
                        "name":"activation_4",
                        "inbound_nodes":[
                            [
                                [
                                    "add_1",
                                    0,
                                    0,
                                    {

                                    }
                                ]
                            ]
                        ]
                    },
                    {
                        "class_name":"Conv2D",
                        "config":{
                            "name":"conv2d_5",
                            "trainable":true,
                            "dtype":"float32",
                            "filters":16,
                            "kernel_size":[
                                3,
                                3
                            ],
                            "strides":[
                                1,
                                1
                            ],
                            "padding":"same",
                            "data_format":"channels_last",
                            "dilation_rate":[
                                1,
                                1
                            ],
                            "activation":"linear",
                            "use_bias":true,
                            "kernel_initializer":{
                                "class_name":"GlorotUniform",
                                "config":{
                                    "seed":null
                                }
                            },
                            "bias_initializer":{
                                "class_name":"Zeros",
                                "config":{

                                }
                            },
                            "kernel_regularizer":null,
                            "bias_regularizer":null,
                            "activity_regularizer":null,
                            "kernel_constraint":null,
                            "bias_constraint":null
                        },
                        "name":"conv2d_5",
                        "inbound_nodes":[
                            [
                                [
                                    "activation_4",
                                    0,
                                    0,
                                    {

                                    }
                                ]
                            ]
                        ]
                    },
                    {
                        "class_name":"BatchNormalization",
                        "config":{
                            "name":"batch_normalization_5",
                            "trainable":true,
                            "dtype":"float32",
                            "axis":[
                                3
                            ],
                            "momentum":0.99,
                            "epsilon":0.001,
                            "center":true,
                            "scale":true,
                            "beta_initializer":{
                                "class_name":"Zeros",
                                "config":{

                                }
                            },
                            "gamma_initializer":{
                                "class_name":"Ones",
                                "config":{

                                }
                            },
                            "moving_mean_initializer":{
                                "class_name":"Zeros",
                                "config":{

                                }
                            },
                            "moving_variance_initializer":{
                                "class_name":"Ones",
                                "config":{

                                }
                            },
                            "beta_regularizer":null,
                            "gamma_regularizer":null,
                            "beta_constraint":null,
                            "gamma_constraint":null
                        },
                        "name":"batch_normalization_5",
                        "inbound_nodes":[
                            [
                                [
                                    "conv2d_5",
                                    0,
                                    0,
                                    {

                                    }
                                ]
                            ]
                        ]
                    },
                    {
                        "class_name":"Activation",
                        "config":{
                            "name":"activation_5",
                            "trainable":true,
                            "dtype":"float32",
                            "activation":"relu"
                        },
                        "name":"activation_5",
                        "inbound_nodes":[
                            [
                                [
                                    "batch_normalization_5",
                                    0,
                                    0,
                                    {

                                    }
                                ]
                            ]
                        ]
                    },
                    {
                        "class_name":"Conv2D",
                        "config":{
                            "name":"conv2d_6",
                            "trainable":true,
                            "dtype":"float32",
                            "filters":16,
                            "kernel_size":[
                                3,
                                3
                            ],
                            "strides":[
                                1,
                                1
                            ],
                            "padding":"same",
                            "data_format":"channels_last",
                            "dilation_rate":[
                                1,
                                1
                            ],
                            "activation":"linear",
                            "use_bias":true,
                            "kernel_initializer":{
                                "class_name":"GlorotUniform",
                                "config":{
                                    "seed":null
                                }
                            },
                            "bias_initializer":{
                                "class_name":"Zeros",
                                "config":{

                                }
                            },
                            "kernel_regularizer":null,
                            "bias_regularizer":null,
                            "activity_regularizer":null,
                            "kernel_constraint":null,
                            "bias_constraint":null
                        },
                        "name":"conv2d_6",
                        "inbound_nodes":[
                            [
                                [
                                    "activation_5",
                                    0,
                                    0,
                                    {

                                    }
                                ]
                            ]
                        ]
                    },
                    {
                        "class_name":"BatchNormalization",
                        "config":{
                            "name":"batch_normalization_6",
                            "trainable":true,
                            "dtype":"float32",
                            "axis":[
                                3
                            ],
                            "momentum":0.99,
                            "epsilon":0.001,
                            "center":true,
                            "scale":true,
                            "beta_initializer":{
                                "class_name":"Zeros",
                                "config":{

                                }
                            },
                            "gamma_initializer":{
                                "class_name":"Ones",
                                "config":{

                                }
                            },
                            "moving_mean_initializer":{
                                "class_name":"Zeros",
                                "config":{

                                }
                            },
                            "moving_variance_initializer":{
                                "class_name":"Ones",
                                "config":{

                                }
                            },
                            "beta_regularizer":null,
                            "gamma_regularizer":null,
                            "beta_constraint":null,
                            "gamma_constraint":null
                        },
                        "name":"batch_normalization_6",
                        "inbound_nodes":[
                            [
                                [
                                    "conv2d_6",
                                    0,
                                    0,
                                    {

                                    }
                                ]
                            ]
                        ]
                    },
                    {
                        "class_name":"Add",
                        "config":{
                            "name":"add_2",
                            "trainable":true,
                            "dtype":"float32"
                        },
                        "name":"add_2",
                        "inbound_nodes":[
                            [
                                [
                                    "activation_4",
                                    0,
                                    0,
                                    {

                                    }
                                ],
                                [
                                    "batch_normalization_6",
                                    0,
                                    0,
                                    {

                                    }
                                ]
                            ]
                        ]
                    },
                    {
                        "class_name":"Activation",
                        "config":{
                            "name":"activation_6",
                            "trainable":true,
                            "dtype":"float32",
                            "activation":"relu"
                        },
                        "name":"activation_6",
                        "inbound_nodes":[
                            [
                                [
                                    "add_2",
                                    0,
                                    0,
                                    {

                                    }
                                ]
                            ]
                        ]
                    },
                    {
                        "class_name":"Conv2D",
                        "config":{
                            "name":"conv2d_7",
                            "trainable":true,
                            "dtype":"float32",
                            "filters":2,
                            "kernel_size":[
                                1,
                                1
                            ],
                            "strides":[
                                1,
                                1
                            ],
                            "padding":"same",
                            "data_format":"channels_last",
                            "dilation_rate":[
                                1,
                                1
                            ],
                            "activation":"linear",
                            "use_bias":true,
                            "kernel_initializer":{
                                "class_name":"GlorotUniform",
                                "config":{
                                    "seed":null
                                }
                            },
                            "bias_initializer":{
                                "class_name":"Zeros",
                                "config":{

                                }
                            },
                            "kernel_regularizer":null,
                            "bias_regularizer":null,
                            "activity_regularizer":null,
                            "kernel_constraint":null,
                            "bias_constraint":null
                        },
                        "name":"conv2d_7",
                        "inbound_nodes":[
                            [
                                [
                                    "activation_6",
                                    0,
                                    0,
                                    {

                                    }
                                ]
                            ]
                        ]
                    },
                    {
                        "class_name":"Conv2D",
                        "config":{
                            "name":"conv2d_8",
                            "trainable":true,
                            "dtype":"float32",
                            "filters":1,
                            "kernel_size":[
                                1,
                                1
                            ],
                            "strides":[
                                1,
                                1
                            ],
                            "padding":"same",
                            "data_format":"channels_last",
                            "dilation_rate":[
                                1,
                                1
                            ],
                            "activation":"linear",
                            "use_bias":true,
                            "kernel_initializer":{
                                "class_name":"GlorotUniform",
                                "config":{
                                    "seed":null
                                }
                            },
                            "bias_initializer":{
                                "class_name":"Zeros",
                                "config":{

                                }
                            },
                            "kernel_regularizer":null,
                            "bias_regularizer":null,
                            "activity_regularizer":null,
                            "kernel_constraint":null,
                            "bias_constraint":null
                        },
                        "name":"conv2d_8",
                        "inbound_nodes":[
                            [
                                [
                                    "activation_6",
                                    0,
                                    0,
                                    {

                                    }
                                ]
                            ]
                        ]
                    },
                    {
                        "class_name":"BatchNormalization",
                        "config":{
                            "name":"batch_normalization_7",
                            "trainable":true,
                            "dtype":"float32",
                            "axis":[
                                3
                            ],
                            "momentum":0.99,
                            "epsilon":0.001,
                            "center":true,
                            "scale":true,
                            "beta_initializer":{
                                "class_name":"Zeros",
                                "config":{

                                }
                            },
                            "gamma_initializer":{
                                "class_name":"Ones",
                                "config":{

                                }
                            },
                            "moving_mean_initializer":{
                                "class_name":"Zeros",
                                "config":{

                                }
                            },
                            "moving_variance_initializer":{
                                "class_name":"Ones",
                                "config":{

                                }
                            },
                            "beta_regularizer":null,
                            "gamma_regularizer":null,
                            "beta_constraint":null,
                            "gamma_constraint":null
                        },
                        "name":"batch_normalization_7",
                        "inbound_nodes":[
                            [
                                [
                                    "conv2d_7",
                                    0,
                                    0,
                                    {

                                    }
                                ]
                            ]
                        ]
                    },
                    {
                        "class_name":"BatchNormalization",
                        "config":{
                            "name":"batch_normalization_8",
                            "trainable":true,
                            "dtype":"float32",
                            "axis":[
                                3
                            ],
                            "momentum":0.99,
                            "epsilon":0.001,
                            "center":true,
                            "scale":true,
                            "beta_initializer":{
                                "class_name":"Zeros",
                                "config":{

                                }
                            },
                            "gamma_initializer":{
                                "class_name":"Ones",
                                "config":{

                                }
                            },
                            "moving_mean_initializer":{
                                "class_name":"Zeros",
                                "config":{

                                }
                            },
                            "moving_variance_initializer":{
                                "class_name":"Ones",
                                "config":{

                                }
                            },
                            "beta_regularizer":null,
                            "gamma_regularizer":null,
                            "beta_constraint":null,
                            "gamma_constraint":null
                        },
                        "name":"batch_normalization_8",
                        "inbound_nodes":[
                            [
                                [
                                    "conv2d_8",
                                    0,
                                    0,
                                    {

                                    }
                                ]
                            ]
                        ]
                    },
                    {
                        "class_name":"Activation",
                        "config":{
                            "name":"activation_7",
                            "trainable":true,
                            "dtype":"float32",
                            "activation":"relu"
                        },
                        "name":"activation_7",
                        "inbound_nodes":[
                            [
                                [
                                    "batch_normalization_7",
                                    0,
                                    0,
                                    {

                                    }
                                ]
                            ]
                        ]
                    },
                    {
                        "class_name":"Activation",
                        "config":{
                            "name":"activation_8",
                            "trainable":true,
                            "dtype":"float32",
                            "activation":"relu"
                        },
                        "name":"activation_8",
                        "inbound_nodes":[
                            [
                                [
                                    "batch_normalization_8",
                                    0,
                                    0,
                                    {

                                    }
                                ]
                            ]
                        ]
                    },
                    {
                        "class_name":"Flatten",
                        "config":{
                            "name":"flatten",
                            "trainable":true,
                            "dtype":"float32",
                            "data_format":"channels_last"
                        },
                        "name":"flatten",
                        "inbound_nodes":[
                            [
                                [
                                    "activation_7",
                                    0,
                                    0,
                                    {

                                    }
                                ]
                            ]
                        ]
                    },
                    {
                        "class_name":"Flatten",
                        "config":{
                            "name":"flatten_1",
                            "trainable":true,
                            "dtype":"float32",
                            "data_format":"channels_last"
                        },
                        "name":"flatten_1",
                        "inbound_nodes":[
                            [
                                [
                                    "activation_8",
                                    0,
                                    0,
                                    {

                                    }
                                ]
                            ]
                        ]
                    },
                    {
                        "class_name":"Dense",
                        "config":{
                            "name":"dense",
                            "trainable":true,
                            "dtype":"float32",
                            "units":7,
                            "activation":"softmax",
                            "use_bias":true,
                            "kernel_initializer":{
                                "class_name":"GlorotUniform",
                                "config":{
                                    "seed":null
                                }
                            },
                            "bias_initializer":{
                                "class_name":"Zeros",
                                "config":{

                                }
                            },
                            "kernel_regularizer":null,
                            "bias_regularizer":null,
                            "activity_regularizer":null,
                            "kernel_constraint":null,
                            "bias_constraint":null
                        },
                        "name":"dense",
                        "inbound_nodes":[
                            [
                                [
                                    "flatten",
                                    0,
                                    0,
                                    {

                                    }
                                ]
                            ]
                        ]
                    },
                    {
                        "class_name":"Dense",
                        "config":{
                            "name":"dense_1",
                            "trainable":true,
                            "dtype":"float32",
                            "units":16,
                            "activation":"relu",
                            "use_bias":true,
                            "kernel_initializer":{
                                "class_name":"GlorotUniform",
                                "config":{
                                    "seed":null
                                }
                            },
                            "bias_initializer":{
                                "class_name":"Zeros",
                                "config":{

                                }
                            },
                            "kernel_regularizer":null,
                            "bias_regularizer":null,
                            "activity_regularizer":null,
                            "kernel_constraint":null,
                            "bias_constraint":null
                        },
                        "name":"dense_1",
                        "inbound_nodes":[
                            [
                                [
                                    "flatten_1",
                                    0,
                                    0,
                                    {

                                    }
                                ]
                            ]
                        ]
                    },
                    {
                        "class_name":"Reshape",
                        "config":{
                            "name":"policy",
                            "trainable":true,
                            "dtype":"float32",
                            "target_shape":[
                                7
                            ]
                        },
                        "name":"policy",
                        "inbound_nodes":[
                            [
                                [
                                    "dense",
                                    0,
                                    0,
                                    {

                                    }
                                ]
                            ]
                        ]
                    },
                    {
                        "class_name":"Dense",
                        "config":{
                            "name":"value",
                            "trainable":true,
                            "dtype":"float32",
                            "units":1,
                            "activation":"tanh",
                            "use_bias":true,
                            "kernel_initializer":{
                                "class_name":"GlorotUniform",
                                "config":{
                                    "seed":null
                                }
                            },
                            "bias_initializer":{
                                "class_name":"Zeros",
                                "config":{

                                }
                            },
                            "kernel_regularizer":null,
                            "bias_regularizer":null,
                            "activity_regularizer":null,
                            "kernel_constraint":null,
                            "bias_constraint":null
                        },
                        "name":"value",
                        "inbound_nodes":[
                            [
                                [
                                    "dense_1",
                                    0,
                                    0,
                                    {

                                    }
                                ]
                            ]
                        ]
                    }
                ],
                "input_layers":[
                    [
                        "input_1",
                        0,
                        0
                    ]
                ],
                "output_layers":[
                    [
                        "policy",
                        0,
                        0
                    ],
                    [
                        "value",
                        0,
                        0
                    ]
                ]
            }
        },
        "training_config":{
            "loss":{
                "policy":"categorical_crossentropy",
                "value":"mean_squared_error"
            },
            "metrics":[
                "mean_squared_error"
            ],
            "weighted_metrics":null,
            "loss_weights":null,
            "sample_weight_mode":null,
            "optimizer_config":{
                "class_name":"Adam",
                "config":{
                    "name":"Adam",
                    "learning_rate":0.0010000000474974513,
                    "decay":0.0,
                    "beta_1":0.8999999761581421,
                    "beta_2":0.9990000128746033,
                    "epsilon":1e-07,
                    "amsgrad":false
                }
            }
        }
    },
    "weightsManifest":[
        {
            "paths":[
                "weights.bin"
            ],
            "weights":[
                {
                    "name":"batch_normalization/gamma",
                    "shape":[
                        16
                    ],
                    "dtype":"float32"
                },
                {
                    "name":"batch_normalization/beta",
                    "shape":[
                        16
                    ],
                    "dtype":"float32"
                },
                {
                    "name":"batch_normalization/moving_mean",
                    "shape":[
                        16
                    ],
                    "dtype":"float32"
                },
                {
                    "name":"batch_normalization/moving_variance",
                    "shape":[
                        16
                    ],
                    "dtype":"float32"
                },
                {
                    "name":"batch_normalization_1/gamma",
                    "shape":[
                        16
                    ],
                    "dtype":"float32"
                },
                {
                    "name":"batch_normalization_1/beta",
                    "shape":[
                        16
                    ],
                    "dtype":"float32"
                },
                {
                    "name":"batch_normalization_1/moving_mean",
                    "shape":[
                        16
                    ],
                    "dtype":"float32"
                },
                {
                    "name":"batch_normalization_1/moving_variance",
                    "shape":[
                        16
                    ],
                    "dtype":"float32"
                },
                {
                    "name":"batch_normalization_2/gamma",
                    "shape":[
                        16
                    ],
                    "dtype":"float32"
                },
                {
                    "name":"batch_normalization_2/beta",
                    "shape":[
                        16
                    ],
                    "dtype":"float32"
                },
                {
                    "name":"batch_normalization_2/moving_mean",
                    "shape":[
                        16
                    ],
                    "dtype":"float32"
                },
                {
                    "name":"batch_normalization_2/moving_variance",
                    "shape":[
                        16
                    ],
                    "dtype":"float32"
                },
                {
                    "name":"batch_normalization_3/gamma",
                    "shape":[
                        16
                    ],
                    "dtype":"float32"
                },
                {
                    "name":"batch_normalization_3/beta",
                    "shape":[
                        16
                    ],
                    "dtype":"float32"
                },
                {
                    "name":"batch_normalization_3/moving_mean",
                    "shape":[
                        16
                    ],
                    "dtype":"float32"
                },
                {
                    "name":"batch_normalization_3/moving_variance",
                    "shape":[
                        16
                    ],
                    "dtype":"float32"
                },
                {
                    "name":"batch_normalization_4/gamma",
                    "shape":[
                        16
                    ],
                    "dtype":"float32"
                },
                {
                    "name":"batch_normalization_4/beta",
                    "shape":[
                        16
                    ],
                    "dtype":"float32"
                },
                {
                    "name":"batch_normalization_4/moving_mean",
                    "shape":[
                        16
                    ],
                    "dtype":"float32"
                },
                {
                    "name":"batch_normalization_4/moving_variance",
                    "shape":[
                        16
                    ],
                    "dtype":"float32"
                },
                {
                    "name":"batch_normalization_5/gamma",
                    "shape":[
                        16
                    ],
                    "dtype":"float32"
                },
                {
                    "name":"batch_normalization_5/beta",
                    "shape":[
                        16
                    ],
                    "dtype":"float32"
                },
                {
                    "name":"batch_normalization_5/moving_mean",
                    "shape":[
                        16
                    ],
                    "dtype":"float32"
                },
                {
                    "name":"batch_normalization_5/moving_variance",
                    "shape":[
                        16
                    ],
                    "dtype":"float32"
                },
                {
                    "name":"batch_normalization_6/gamma",
                    "shape":[
                        16
                    ],
                    "dtype":"float32"
                },
                {
                    "name":"batch_normalization_6/beta",
                    "shape":[
                        16
                    ],
                    "dtype":"float32"
                },
                {
                    "name":"batch_normalization_6/moving_mean",
                    "shape":[
                        16
                    ],
                    "dtype":"float32"
                },
                {
                    "name":"batch_normalization_6/moving_variance",
                    "shape":[
                        16
                    ],
                    "dtype":"float32"
                },
                {
                    "name":"batch_normalization_7/gamma",
                    "shape":[
                        2
                    ],
                    "dtype":"float32"
                },
                {
                    "name":"batch_normalization_7/beta",
                    "shape":[
                        2
                    ],
                    "dtype":"float32"
                },
                {
                    "name":"batch_normalization_7/moving_mean",
                    "shape":[
                        2
                    ],
                    "dtype":"float32"
                },
                {
                    "name":"batch_normalization_7/moving_variance",
                    "shape":[
                        2
                    ],
                    "dtype":"float32"
                },
                {
                    "name":"batch_normalization_8/gamma",
                    "shape":[
                        1
                    ],
                    "dtype":"float32"
                },
                {
                    "name":"batch_normalization_8/beta",
                    "shape":[
                        1
                    ],
                    "dtype":"float32"
                },
                {
                    "name":"batch_normalization_8/moving_mean",
                    "shape":[
                        1
                    ],
                    "dtype":"float32"
                },
                {
                    "name":"batch_normalization_8/moving_variance",
                    "shape":[
                        1
                    ],
                    "dtype":"float32"
                },
                {
                    "name":"conv2d/kernel",
                    "shape":[
                        3,
                        3,
                        3,
                        16
                    ],
                    "dtype":"float32"
                },
                {
                    "name":"conv2d/bias",
                    "shape":[
                        16
                    ],
                    "dtype":"float32"
                },
                {
                    "name":"conv2d_1/kernel",
                    "shape":[
                        3,
                        3,
                        16,
                        16
                    ],
                    "dtype":"float32"
                },
                {
                    "name":"conv2d_1/bias",
                    "shape":[
                        16
                    ],
                    "dtype":"float32"
                },
                {
                    "name":"conv2d_2/kernel",
                    "shape":[
                        3,
                        3,
                        16,
                        16
                    ],
                    "dtype":"float32"
                },
                {
                    "name":"conv2d_2/bias",
                    "shape":[
                        16
                    ],
                    "dtype":"float32"
                },
                {
                    "name":"conv2d_3/kernel",
                    "shape":[
                        3,
                        3,
                        16,
                        16
                    ],
                    "dtype":"float32"
                },
                {
                    "name":"conv2d_3/bias",
                    "shape":[
                        16
                    ],
                    "dtype":"float32"
                },
                {
                    "name":"conv2d_4/kernel",
                    "shape":[
                        3,
                        3,
                        16,
                        16
                    ],
                    "dtype":"float32"
                },
                {
                    "name":"conv2d_4/bias",
                    "shape":[
                        16
                    ],
                    "dtype":"float32"
                },
                {
                    "name":"conv2d_5/kernel",
                    "shape":[
                        3,
                        3,
                        16,
                        16
                    ],
                    "dtype":"float32"
                },
                {
                    "name":"conv2d_5/bias",
                    "shape":[
                        16
                    ],
                    "dtype":"float32"
                },
                {
                    "name":"conv2d_6/kernel",
                    "shape":[
                        3,
                        3,
                        16,
                        16
                    ],
                    "dtype":"float32"
                },
                {
                    "name":"conv2d_6/bias",
                    "shape":[
                        16
                    ],
                    "dtype":"float32"
                },
                {
                    "name":"conv2d_7/kernel",
                    "shape":[
                        1,
                        1,
                        16,
                        2
                    ],
                    "dtype":"float32"
                },
                {
                    "name":"conv2d_7/bias",
                    "shape":[
                        2
                    ],
                    "dtype":"float32"
                },
                {
                    "name":"conv2d_8/kernel",
                    "shape":[
                        1,
                        1,
                        16,
                        1
                    ],
                    "dtype":"float32"
                },
                {
                    "name":"conv2d_8/bias",
                    "shape":[
                        1
                    ],
                    "dtype":"float32"
                },
                {
                    "name":"dense/kernel",
                    "shape":[
                        84,
                        7
                    ],
                    "dtype":"float32"
                },
                {
                    "name":"dense/bias",
                    "shape":[
                        7
                    ],
                    "dtype":"float32"
                },
                {
                    "name":"dense_1/kernel",
                    "shape":[
                        42,
                        16
                    ],
                    "dtype":"float32"
                },
                {
                    "name":"dense_1/bias",
                    "shape":[
                        16
                    ],
                    "dtype":"float32"
                },
                {
                    "name":"value/kernel",
                    "shape":[
                        16,
                        1
                    ],
                    "dtype":"float32"
                },
                {
                    "name":"value/bias",
                    "shape":[
                        1
                    ],
                    "dtype":"float32"
                }
            ]
        }
    ]
}